Model: "sequential_1"
_________________________________________________________________
Layer (type)                 Output Shape              Param #   
=================================================================
conv2d_1 (Conv2D)            (None, 14, 14, 32)        320       
_________________________________________________________________
leaky_re_lu_1 (LeakyReLU)    (None, 14, 14, 32)        0         
_________________________________________________________________
dropout_1 (Dropout)          (None, 14, 14, 32)        0         
_________________________________________________________________
conv2d_2 (Conv2D)            (None, 7, 7, 64)          18496     
_________________________________________________________________
zero_padding2d_1 (ZeroPaddin (None, 8, 8, 64)          0         
_________________________________________________________________
batch_normalization_1 (Batch (None, 8, 8, 64)          256       
_________________________________________________________________
leaky_re_lu_2 (LeakyReLU)    (None, 8, 8, 64)          0         
_________________________________________________________________
dropout_2 (Dropout)          (None, 8, 8, 64)          0         
_________________________________________________________________
conv2d_3 (Conv2D)            (None, 4, 4, 128)         73856     
_________________________________________________________________
batch_normalization_2 (Batch (None, 4, 4, 128)         512       
_________________________________________________________________
leaky_re_lu_3 (LeakyReLU)    (None, 4, 4, 128)         0         
_________________________________________________________________
dropout_3 (Dropout)          (None, 4, 4, 128)         0         
_________________________________________________________________
conv2d_4 (Conv2D)            (None, 4, 4, 256)         295168    
_________________________________________________________________
batch_normalization_3 (Batch (None, 4, 4, 256)         1024      
_________________________________________________________________
leaky_re_lu_4 (LeakyReLU)    (None, 4, 4, 256)         0         
_________________________________________________________________
dropout_4 (Dropout)          (None, 4, 4, 256)         0         
_________________________________________________________________
flatten_1 (Flatten)          (None, 4096)              0         
_________________________________________________________________
dense_1 (Dense)              (None, 1)                 4097      
=================================================================
Total params: 393,729
Trainable params: 392,833
Non-trainable params: 896
_________________________________________________________________
Model: "sequential_2"
_________________________________________________________________
Layer (type)                 Output Shape              Param #   
=================================================================
dense_2 (Dense)              (None, 6272)              633472    
_________________________________________________________________
reshape_1 (Reshape)          (None, 7, 7, 128)         0         
_________________________________________________________________
up_sampling2d_1 (UpSampling2 (None, 14, 14, 128)       0         
_________________________________________________________________
conv2d_5 (Conv2D)            (None, 14, 14, 128)       147584    
_________________________________________________________________
batch_normalization_4 (Batch (None, 14, 14, 128)       512       
_________________________________________________________________
activation_1 (Activation)    (None, 14, 14, 128)       0         
_________________________________________________________________
up_sampling2d_2 (UpSampling2 (None, 28, 28, 128)       0         
_________________________________________________________________
conv2d_6 (Conv2D)            (None, 28, 28, 64)        73792     
_________________________________________________________________
batch_normalization_5 (Batch (None, 28, 28, 64)        256       
_________________________________________________________________
activation_2 (Activation)    (None, 28, 28, 64)        0         
_________________________________________________________________
conv2d_7 (Conv2D)            (None, 28, 28, 1)         577       
_________________________________________________________________
activation_3 (Activation)    (None, 28, 28, 1)         0         
=================================================================
Total params: 856,193
Trainable params: 855,809
Non-trainable params: 384
_________________________________________________________________
0 [D loss: 0.953149, acc.: 39.06%] [G loss: 0.906794]
1 [D loss: 0.326676, acc.: 92.19%] [G loss: 1.600514]
2 [D loss: 0.194025, acc.: 95.31%] [G loss: 2.452879]
3 [D loss: 0.080750, acc.: 100.00%] [G loss: 2.811853]
…
